models/tflite/gesture_classifier.tflite (tflite, 22856 bytes, 8 tensors)

arith.constant f4 [128]
0.24665835 0.0048275627 0.16618797 -0.37085408 -0.11070018 -0.123415224 -0.12969944 -0.4799624
-0.08284435 0.5482286 -0.13157578 0.12019736 -0.28518862 0.0071203206 0.33706707 -0.46575564
0.38792184 0.0025725586 0.6237234 0.43825558 -0.15814526 0.1961517 0.80260205 0.14512593
-0.12889512 0.17770919 0.03221226 -0.07293977 -0.14759484 -0.08565867 0.15474214 0.02651904
-0.102230385 -1.1837721 -0.12028164 0.09207358 0.43402168 -0.122223794 -0.48684207 0.33652657
0.159971 -0.0880119 -0.08627553 0.45307148 -0.15264145 -0.25916365 0.09061886 -0.12906577
0.3354603 -0.04205184 0.7084833 -0.014362168 -0.22018768 0.36546445 0.39495745 -0.0526462
0.16982639 0.0032519994 0.59850293 -0.22547382 -0.3401901 0.8221637 0.006210905 0.56252587
-0.15075989 0.41676015 0.32710877 -0.4299398 -0.09057509 -0.106870875 0.43482897 -0.07150162
-0.2516672 0.06565007 0.3728368 0.9982424 1.0141689 -0.14435703 -0.4235716 -0.35546967
0.4147402 -0.20876881 -0.109786674 0.12520604 0.25045747 0.15348461 -0.2443149 -0.35201398
0.08887612 0.41513315 0.2374479 -0.18896854 -0.46362874 -0.10139223 -0.123251714 -0.09426375
0.006819145 -0.15340452 0.3380264 0.046729848 0.018914863 -0.479825 -0.38042575 -0.09076421
-0.052355923 -0.013511821 0.031605262 0.1277265 0.21216969 0.05075085 -0.032365553 -0.031671673
-0.13079393 -0.066631705 -0.11711366 0.1079206 -0.04205141 -0.43522727 0.042212177 -0.18293795
-0.34106845 0.75169516 0.06597728 -0.38747337 -0.394628 -0.02757039 0.19346993 0.063976005
00000000: 0294 7c3e 8830 9e3b 2e2d 2a3e 96e0 bdbe
00000010: c7b6 e2bd 1fc1 fcbd eecf 04be a2bd f5be
00000020: 4caa a9bd b658 0c3f cdbb 06be 092a f63d
00000030: 3e04 92be 9451 e93b 0e94 ac3e 8677 eebe
00000040: b19d c63e 5f98 283b 56ac 1f3f 0963 e03e
00000050: d5f0 21be fedb 483e 5477 4d3f e49b 143e
00000060: 15fd 03be 66f9 353e 01f1 033d 7261 95bd
00000070: 1a23 17be d06d afbd b974 1e3e 753e d93c
00000080: 2a5e d1bd d885 97bf 3856 f6bd 1391 bc3d
00000090: 1738 de3e 7850 fabd 5d43 f9be 364d ac3e
000000a0: 70cf 233e 953f b4bd 3ab1 b0bd fcf8 e73e
000000b0: 0a4e 1cbe 19b1 84be 6296 b93d d129 04be
000000c0: 74c1 ab3e 8d3e 2cbd 295f 353f 4c4f 6bbc
000000d0: e178 61be 281e bb3e dd37 ca3e 8ba3 57bd
000000e0: f8e6 2d3e 7f1f 553b 7d37 193f 9ce2 66be
000000f0: 662d aebe 5279 523f d984 cb3b b201 103f
00000100: cd60 1abe 9661 d53e cd7a a73e 1221 dcbe
00000110: 6f7f b9bd 1edf dabd e7a1 de3e 716f 92bd
00000120: 86da 80be 8b73 863d 77e4 be3e d08c 7f3f
00000130: 49d0 813f 54d2 13be 60de d8be 1f00 b6be
00000140: d458 d43e 7ec7 55be d6d7 e0bd 0336 003e
00000150: f63b 803e 122b 1d3e af2d 7abe 2d3b b4be
00000160: af04 b63d 558c d43e 8b25 733e f880 41be
00000170: bf60 edbe bba6 cfbd 656b fcbd 5a0d c1bd
00000180: 2273 df3b 1316 1dbe cc11 ad3e cc67 3f3d
00000190: 58f3 9a3c 9fab f5be 2ac7 c2be 96e2 b9bd
000001a0: 2a73 56bd af60 5dbc 8574 013d bcca 023e
000001b0: 0343 593e 20e0 4f3d be91 04bd 28ba 01bd
000001c0: d8ee 05be 3476 88bd 49d9 efbd 7a05 dd3d
000001d0: 193e 2cbd 1cd6 debe ade6 2c3d 1654 3bbe
000001e0: 86a0 aebe 186f 403f 191f 873d e962 c6be
000001f0: ae0c cabe 4cdb e1bc fb1c 463e da05 833d

arith.constant1 f4 [64]
0.060735397 1.5166081 2.3391843 0.130747 1.4002988 -0.82285553 1.6365956 -0.7537302
-1.602999 -0.04796984 0.71958596 1.2500492 0.9658733 0.275282 0.45155272 1.4593647
-0.8782466 -0.39203072 -1.5524411 -0.6297031 -0.74558043 0.81118 0.46690574 1.4885337
1.5734246 -0.1856314 -0.40364313 -0.37470418 0.43273342 1.7057905 0.5666564 0.17467412
1.8351808 0.8670504 0.71060604 -0.2773286 0.18166378 0.20011657 0.25010237 -0.289765
-0.26569065 -1.0577259 -0.07840898 -0.32122654 0.09508757 -0.7144607 0.8870584 -2.2377822
0.06682398 0.7751746 0.41235498 -0.2888514 0.6563141 0.3087278 -0.23462181 0.8268836
-0.91956353 0.81110686 1.7083672 -0.90898573 0.8066122 0.5571131 0.2681765 0.54099053
00000000: aec5 783d 3720 c23f 32b5 1540 8be2 053e
00000010: fe3c b33f a9a6 52bf f77b d13f 76f4 40bf
00000020: 122f cdbf 067c 44bd c936 383f 9d01 a03f
00000030: 7943 773f c3f1 8c3e eb31 e73e 76cc ba3f
00000040: c5d4 60bf 40b8 c8be 64b6 c6bf 3934 21bf
00000050: 5cde 3ebf 7ea9 4f3f 450e ef3e 4688 be3f
00000060: fa65 c93f 2816 3ebe 50aa cebe 3ad9 bfbe
00000070: 3c8f dd3e 5857 da3f 6510 113f c6dd 323e
00000080: 34e7 ea3f 04f7 5d3f 47ea 353f 04fe 8dbe
00000090: 1206 3a3e 5ceb 4c3e 6b0d 803e 145c 94be
000000a0: 9b08 88be 9063 87bf e394 a0bd ce77 a4be
000000b0: 46bd c23d e5e6 36bf 4216 633f d337 0fc0
000000c0: 03db 883d d871 463f 3120 d33e 55e4 93be
000000d0: 3304 283f 9211 9e3e b340 70be a5ae 533f
000000e0: 8468 6bbf b3a4 4f3f c7ab da3f 4ab3 68bf
000000f0: 237e 4e3f f79e 0e3f 6e4e 893e 5b7e 0a3f

arith.constant2 f4 [32]
-0.7760504 -0.19680525 0.88908976 -0.84419477 -0.4110795 0.12926719 1.2961847 -0.19096103
0.99637383 1.2201765 -0.7514132 -0.5710447 -0.6393308 1.0365739 -1.2085918 0.8291569
-1.0925038 0.673264 -0.6869914 0.8495329 1.6094661 0.07043082 0.9574667 1.4858407
1.0627551 -1.148455 0.100429915 0.99197567 -0.1675458 -0.20747654 0.6153883 0.39834094
00000000: 3dab 46bf 5187 49be 639b 633f 261d 58bf
00000010: 0379 d2be 9e5e 043e 61e9 a53f 4a8b 43be
00000020: 5b12 7f3f be2e 9c3f 9e5c 40bf fc2f 12bf
00000030: 2fab 23bf 74ae 843f 23b3 9abf a043 543f
00000040: 2ad7 8bbf 085b 2c3f abde 2fbf fd7a 593f
00000050: fc02 ce3f 093e 903d 8a1c 753f 0730 be3f
00000060: 5c08 883f 9300 93bf 33ae cd3d 1ef2 7d3f
00000070: 2091 2bbe bb74 54be 168a 1d3f 58f3 cb3e

arith.constant3 f4 [4, 32]
0.19262198 -0.0360993 -0.13740376 -0.119539425 -0.27010548 0.25187337 0.41597027 -0.12977676
-0.41229966 -0.20402235 0.056668095 0.15217258 -0.4074738 -0.2840463 0.18820553 -0.09830401
-0.3560412 -0.3201417 0.0005789338 0.21209797 0.3384391 0.10247694 0.22131875 0.05419813
0.3408747 -0.2542753 0.39417145 -0.36426094 -0.2784088 -0.41442457 0.31519675 -0.32484946
0.07169614 0.310683 0.1824052 -0.25807104 -0.186698 -0.1496676 0.31050903 0.22368474
0.051301606 -0.2951504 -0.1459603 -0.35203135 -0.22199027 -0.25734007 -0.08015439 -0.06528246
0.36080298 -0.41730878 0.086899936 -0.12235611 -0.22619265 0.22361656 -0.40493804 0.22506422
-0.19794428 0.37660256 0.23846646 -0.12584142 -0.10191641 -0.2916085 0.3510603 -0.2936426
0.03584549 -0.3708421 0.34728828 -0.08741192 0.061019585 0.15877797 -0.010618325 -0.05572733
-0.18629514 0.112744026 0.41230828 0.2553511 -0.05502277 -0.29846528 -0.17482667 -0.4504744
0.16817929 -0.17918123 -0.056097988 -0.16853504 0.35629904 -0.32880506 -0.19670781 -0.32560775
-0.0064996704 -0.327845 -0.1359274 0.2440454 0.26272175 0.0062966105 -0.19935411 -0.44298553
-0.2669264 0.17955424 0.33694512 0.30154034 0.31346074 -0.31364393 -0.41159436 -0.063458286
-0.34639338 0.39399043 -0.24300984 0.039022356 -0.29743156 0.18297982 -0.018034896 0.15915908
-0.13619886 -0.06032008 0.43822077 0.07874585 -0.42093632 -0.31171322 0.09191523 -0.0761422
-0.048888963 0.3423563 0.35713255 -0.15839693 -0.34461212 -0.21513855 -0.32280928 -0.5639266
00000000: b23e 453e dcdc 13bd 92b3 0cbe 16d1 f4bd
00000010: 444b 8abe 8cf5 803e 0efa d43e 33e4 04be
00000020: f118 d3be 3ceb 50be ce1c 683d 21d3 1b3e
00000030: 68a0 d0be 846e 91be f3b8 403e 9d53 c9bd
00000040: 084b b6be 9de9 a3be 97c3 173a 3630 593e
00000050: e447 ad3e 6edf d13d 62a1 623e dcfe 5d3d
00000060: 2187 ae3e 5f30 82be d7d0 c93e 6980 babe
00000070: 998b 8ebe 752f d4be 7861 a13e ab52 a6be
00000080: 6dd5 923d d811 9f3e 6ec8 3a3e e321 84be
00000090: c32d 3fbe 7742 19be 0afb 9e3e 9d0d 653e
000000a0: a221 523d f41d 97be 9e76 15be 743d b4be
000000b0: 6b51 63be 14c2 83be fc27 a4bd cfb2 85bd
000000c0: 2bbb b83e 7fa9 d5be 98f8 b13d d795 fabd
000000d0: 0c9f 67be bdfb 643e 0a54 cfbe 3c77 663e
000000e0: e8b1 4abe 0dd2 c03e 8d30 743e 93dc 00be
000000f0: 8db9 d0bd b64d 95be 2dbe b33e 5358 96be
00000100: b8d2 123d 04df bdbe c5cf b13e 0505 b3bd
00000110: acef 793d b196 223e 7cf8 2dbc 5742 64bd
00000120: 27c4 3ebe 57e6 e63d 121a d33e 61bd 823e
00000130: 8e5f 61bd 71d0 98be c305 33be 95a4 e6be
00000140: 3137 2c3e 497b 37be 01c7 65bd 7394 2cbe
00000150: d46c b63e 2359 a8be c66d 49be 0fb6 a6be
00000160: 30fb d4bb 4ddb a7be 8d30 0bbe 0ae7 793e
00000170: 7783 863e cc53 ce3b 7c23 4cbe 00cf e2be
00000180: 94aa 88be 11dd 373e 1284 ac3e 7f63 9a3e
00000190: ed7d a03e f095 a0be 7fbc d2be 6bf6 81bd
000001a0: 795a b1be 1db9 c93e 92d7 78be e8d5 1f3d
000001b0: f348 98be 105f 3b3e ebbd 93bc 99fa 223e
000001c0: b777 0bbe 3012 77bd 795e e03e 8145 a13d
000001d0: f784 d7be e098 9fbe 0d3e bc3d 71f0 9bbd
000001e0: cb3f 48bd 5349 af3e 14da b63e ce32 22be
000001f0: 0071 b0be 484d 5cbe 4247 a5be 7e5d 10bf

arith.constant4 f4 [4]
0.5714703 0.33472514 1.2681837 1.4885433
00000000: e14b 123f 1861 ab3e d853 a23f 9688 be3f

tfl.pseudo_qconst i1 [32, 64]
-92 75 27 9 79 -38 55 43
19 -15 -44 31 -86 76 -19 32
-1 102 26 -78 95 -12 4 -42
93 -95 105 7 9 93 75 -66
127 49 18 -15 20 -27 30 -32
55 -91 -124 -19 -4 4 -32 36
16 -20 -90 -78 27 88 -101 54
60 -74 40 -120 100 69 37 67
-70 22 52 99 83 69 -76 85
-84 51 66 -9 37 -96 37 -6
-50 -37 -112 -86 -4 47 -78 25
19 -18 103 29 89 -69 -17 47
86 2 122 -85 -6 -69 -48 53
79 21 -67 -10 63 15 37 -86
-87 -65 42 14 -33 -91 -36 3
54 56 107 -23 127 39 57 -63
-111 -19 -103 -90 -58 73 -41 -23
-1 -2 87 -38 -94 16 -11 -68
-57 72 30 26 117 11 -55 33
27 37 -120 -54 -72 84 32 -39
-58 -97 59 41 -44 -30 86 -15
-84 -2 -3 50 70 -94 99 66
62 -24 28 -110 -127 -45 7 -50
117 -41 -33 62 -51 32 -2 -87
20 50 117 22 4 84 84 -35
-76 74 -79 -126 127 -114 -86 -28
-72 -113 29 106 -30 -40 -69 54
69 108 12 6 94 83 81 62
-36 -94 -41 17 95 -2 -5 67
-22 58 28 80 60 67 -52 -37
7 -42 7 7 -32 45 10 58
99 -66 -28 12 49 -78 -127 83
00000000: a44b 1b09 4fda 372b 13f1 d41f aa4c ed20
00000010: ff66 1ab2 5ff4 04d6 5da1 6907 095d 4bbe
00000020: 7f31 12f1 14e5 1ee0 37a5 84ed fc04 e024
00000030: 10ec a6b2 1b58 9b36 3cb6 2888 6445 2543
00000040: ba16 3463 5345 b455 ac33 42f7 25a0 25fa
00000050: cedb 90aa fc2f b219 13ee 671d 59bb ef2f
00000060: 5602 7aab fabb d035 4f15 bdf6 3f0f 25aa
00000070: a9bf 2a0e dfa5 dc03 3638 6be9 7f27 39c1
00000080: 91ed 99a6 c649 d7e9 fffe 57da a210 f5bc
00000090: c748 1e1a 750b c921 1b25 88ca b854 20d9
000000a0: c69f 3b29 d4e2 56f1 acfe fd32 46a2 6342
000000b0: 3ee8 1c92 81d3 07ce 75d7 df3e cd20 fea9
000000c0: 1432 7516 0454 54dd b44a b182 7f8e aae4
000000d0: b88f 1d6a e2d8 bb36 456c 0c06 5e53 513e
000000e0: dca2 d711 5ffe fb43 ea3a 1c50 3c43 ccdb
000000f0: 07d6 0707 e02d 0a3a 63be e40c 31b2 8153

tfl.pseudo_qconst1 i1 [64, 128]
-15 -39 26 19 -25 79 -50 7
1 -23 -11 15 25 71 -3 22
-21 -40 -21 -16 17 -4 -1 6
3 -20 51 -5 -34 -46 -3 -6
46 -5 1 17 4 -37 17 9
0 20 -8 31 -16 20 49 32
15 -127 -10 44 49 -5 40 -39
19 38 -14 10 -31 8 21 -14
-49 8 -10 15 -50 16 -42 -35
-17 -1 8 -13 9 41 -22 19
2 -52 -17 14 -33 10 -14 -30
1 16 12 -1 15 -19 -37 62
-22 6 -9 -9 -28 39 20 -3
-46 11 29 -22 -14 -28 -21 67
33 78 9 -14 30 2 11 35
-20 4 -8 -7 -16 -42 -23 11
28 52 27 -7 16 -46 18 29
-61 -39 -120 -16 -4 49 10 -38
-20 10 28 6 -40 -37 -15 -28
27 -15 40 28 -46 -49 -29 -34
40 13 -79 -7 -15 63 27 -26
-8 34 28 46 86 8 -21 -52
-1 87 9 -67 -83 -52 -57 -8
7 -101 -22 -54 11 -3 38 6
-62 17 7 36 31 -55 -44 29
15 26 -31 -31 0 55 -34 -67
-74 66 62 13 24 -52 6 12
-7 -36 43 -9 -18 -127 -4 125
25 29 6 -21 -65 66 10 -90
-13 47 43 -101 -20 -24 -5 30
-52 26 -4 33 -43 -7 -39 -59
19 23 -98 34 -32 -96 -12 -75
00000000: f1d9 1a13 e74f ce07 01e9 f50f 1947 fd16
00000010: ebd8 ebf0 11fc ff06 03ec 33fb ded2 fdfa
00000020: 2efb 0111 04db 1109 0014 f81f f014 3120
00000030: 0f81 f62c 31fb 28d9 1326 f20a e108 15f2
00000040: cf08 f60f ce10 d6dd efff 08f3 0929 ea13
00000050: 02cc ef0e df0a f2e2 0110 0cff 0fed db3e
00000060: ea06 f7f7 e427 14fd d20b 1dea f2e4 eb43
00000070: 214e 09f2 1e02 0b23 ec04 f8f9 f0d6 e90b
00000080: 1c34 1bf9 10d2 121d c3d9 88f0 fc31 0ada
00000090: ec0a 1c06 d8db f1e4 1bf1 281c d2cf e3de
000000a0: 280d b1f9 f13f 1be6 f822 1c2e 5608 ebcc
000000b0: ff57 09bd adcc c7f8 079b eaca 0bfd 2606
000000c0: c211 0724 1fc9 d41d 0f1a e1e1 0037 debd
000000d0: b642 3e0d 18cc 060c f9dc 2bf7 ee81 fc7d
000000e0: 191d 06eb bf42 0aa6 f32f 2b9b ece8 fb1e
000000f0: cc1a fc21 d5f9 d9c5 1317 9e22 e0a0 f4b5

sequential_1/batch_normalization_1/batchnorm/mul_1;sequential_1/batch_normalization_1/batchnorm/add_1;sequential_1/dense_1/MatMul;sequential_1/dense_1/Relu;sequential_1/dense_1/BiasAdd i1 [128, 42]
-38 127 -25 103 53 38 -91 55
112 55 63 -56 -69 -40 22 11
49 -44 -71 4 -54 18 53 -22
16 11 87 -90 -20 49 -47 41
-15 65 50 -32 72 36 -51 40
-67 64 5 14 105 45 -127 6
90 -54 13 -39 52 44 -26 -71
49 62 13 29 4 -39 -34 20
53 39 -76 -50 -19 100 64 1
24 -81 -8 -10 24 -89 60 96
-70 11 2 55 44 -127 116 38
61 -53 74 -36 27 1 40 9
53 21 19 1 -4 38 59 40
17 6 32 67 -38 20 -13 -68
-28 -16 -20 64 -59 -24 58 70
-57 3 -24 -6 78 -37 23 -116
127 -53 112 18 -12 -60 -87 -39
-59 -76 -38 -2 16 20 51 76
75 -96 -96 -5 20 -35 92 22
-92 -38 -78 -71 -74 -37 -4 83
37 41 16 29 25 -60 7 -42
-65 -116 127 26 101 47 -28 -56
84 -5 -69 65 -26 52 -75 -33
-97 -26 27 -85 -24 27 79 -77
-60 19 3 -86 3 53 38 -88
-13 40 10 6 -76 14 -77 64
16 -52 -26 -85 80 -5 -127 -21
-45 16 87 29 -42 14 -65 -57
66 -7 84 54 -9 39 -104 -43
53 -20 88 -73 -29 -10 -42 13
32 -59 34 45 64 28 6 0
8 76 -31 6 110 2 -48 -110
00000000: da7f e767 3526 a537 7037 3fc8 bbd8 160b
00000010: 31d4 b904 ca12 35ea 100b 57a6 ec31 d129
00000020: f141 32e0 4824 cd28 bd40 050e 692d 8106
00000030: 5aca 0dd9 342c e6b9 313e 0d1d 04d9 de14
00000040: 3527 b4ce ed64 4001 18af f8f6 18a7 3c60
00000050: ba0b 0237 2c81 7426 3dcb 4adc 1b01 2809
00000060: 3515 1301 fc26 3b28 1106 2043 da14 f3bc
00000070: e4f0 ec40 c5e8 3a46 c703 e8fa 4edb 178c
00000080: 7fcb 7012 f4c4 a9d9 c5b4 dafe 1014 334c
00000090: 4ba0 a0fb 14dd 5c16 a4da b2b9 b6db fc53
000000a0: 2529 101d 19c4 07d6 bf8c 7f1a 652f e4c8
000000b0: 54fb bb41 e634 b5df 9fe6 1bab e81b 4fb3
000000c0: c413 03aa 0335 26a8 f328 0a06 b40e b340
000000d0: 10cc e6ab 50fb 81eb d310 571d d60e bfc7
000000e0: 42f9 5436 f727 98d5 35ec 58b7 e3f6 d60d
000000f0: 20c5 222d 401c 0600 084c e106 6e02 d092
